2ftrs_20epochs_5batch.pth (torch, 4055 bytes, 5 tensors)

fc1.weight f4 [20, 2]
0	0xbcb8f946	-0.0225798
1	0x3f10f5b6	0.56624925
2	0xbf2b01a6	-0.6679939
3	0x3c6cd6cd	0.014455509
4	0x3f0b4d85	0.5441516
5	0x3d0f1a96	0.034937464
6	0xbf2811ed	-0.6565235
7	0x3daf5e9a	0.08562966
8	0x3eb69f3c	0.3566836
9	0xbef1c8c8	-0.47223496
10	0x3f34dad2	0.70646393
11	0x3e460097	0.19336163
12	0x3f1d6ea0	0.61496925
13	0x3ead58c2	0.3385678
14	0x3d731dc7	0.05935457
15	0xbf1e0f4f	-0.6174211
16	0x3e79553d	0.24348922
17	0x3ee7dda4	0.45286286
18	0xbeef2ab9	-0.46712282
19	0xbe3515d8	-0.17684114
20	0xbda59422	-0.08084895
21	0x3d17f2d3	0.03709681
22	0x3f009f89	0.5024343
23	0x3f54ca30	0.83121014
24	0xbee05dd7	-0.43821594
25	0x3e0dd596	0.13851008
26	0x3ef74c24	0.48300278
27	0x3ea79971	0.32734254
28	0x3e51a3b4	0.20472604
29	0xbed21433	-0.41031036
30	0x3f1fd325	0.62431556
31	0xbf2f3cde	-0.6845225
32	0xbf0505d6	-0.5196203
33	0x3e5f80f5	0.21826537
34	0x3f39b369	0.72539383
35	0xbf06dc83	-0.52680224
36	0x3dd8048b	0.105477415
37	0x3d40ab2b	0.04703824
38	0x3e6359b1	0.22202183
39	0x3efa59db	0.4889668

fc1.bias f4 [20]
0	0x3ef7f3b7	0.48428127
1	0xbeb4336c	-0.35195482
2	0xbf089f36	-0.53367937
3	0xbf2ae1d6	-0.6675085
4	0xbab3fd16	-0.0013732042
5	0xbf0f8ceb	-0.560744
6	0xbcc4f6ec	-0.024043523
7	0xbdc6644d	-0.096870996
8	0x3c0483ce	0.008088065
9	0x3f20f581	0.6287461
10	0x3f16bdfb	0.5888364
11	0x3cdf20e9	0.027237372
12	0xbec6713a	-0.3875826
13	0xbf18b278	-0.5964732
14	0xbee56adb	-0.44808087
15	0x3ec7f096	0.3905074
16	0xbd93e765	-0.072218694
17	0x3e8ffff3	0.2812496
18	0xbf26832e	-0.65043914
19	0xbeeb17a4	-0.45916474

fc2.weight f4 [20, 20]
0	0xbe048322	-0.12940648
1	0xbe279b79	-0.16367902
2	0x3d66b3af	0.056323703
3	0xbda78f29	-0.081816025
4	0xbe22a038	-0.15881431
5	0x3dde60fc	0.10858342
6	0xbe576bf4	-0.21037275
7	0xbe1fa4b1	-0.15590169
8	0xbe291e5c	-0.16515487
9	0x3dd565df	0.10419821
10	0xbca6bad2	-0.020352755
11	0x3e34d156	0.1765798
12	0x3d817635	0.06321374
13	0xbdabbdd6	-0.08385818
14	0x3e3c393a	0.18381205
15	0xbbc2e92a	-0.0059482055
16	0xbe4e40b7	-0.20141874
17	0x3df6172f	0.12016141
18	0xbdb30b7d	-0.087424256
19	0x3de21559	0.11039228
20	0x3d300cb0	0.04298085
21	0xbd5a6e0e	-0.053327613
22	0xbd424a75	-0.04743429
23	0xbe2a7734	-0.16647035
24	0x3d44f7d9	0.04808793
25	0x3cdaf436	0.026727777
26	0x3da25794	0.079268605
27	0x3e347977	0.1762446
28	0xbe32cbe7	-0.17460595
29	0xbe36e495	-0.17860635
30	0xbd891d64	-0.06695059
31	0x3cb212e2	0.02173752
32	0xbde5dd26	-0.11223821
33	0xbe08ed9f	-0.13371895
34	0x3e5199fc	0.20468897
35	0x3d2e6b76	0.04258295
36	0xbdf37798	-0.11888045
37	0x3d84013c	0.06445548
38	0xbdf52748	-0.11970383
39	0xbd68f53b	-0.056874495
40	0x3e15321e	0.145699
41	0xbe5ab53b	-0.21358196
42	0xbe218a63	-0.15775447
43	0xbe21dbf2	-0.15806559
44	0x3dffc10e	0.12487994
45	0x3e533e58	0.20629251
46	0xbe140f8e	-0.14459059
47	0x3aa1dd26	0.0012349233
48	0xbe03cfc5	-0.12872227
49	0x3d53dafb	0.051722508
50	0xbd9b9257	-0.075962715
51	0xbc3fd9ab	-0.011709611
52	0xbe4c76a9	-0.1996714
53	0xbe23794d	-0.15964241
54	0x3e2545f6	0.16139969
55	0x3c34f19b	0.011043931
56	0x3dfe6c8e	0.12423049
57	0x3e2628d6	0.16226515
58	0xbb9b8dfd	-0.004747151
59	0xbd84a4e6	-0.064767644
60	0x3e451d6b	0.19249503
61	0xbde7cd0c	-0.113184065
62	0x3e130d81	0.1436062
63	0x3e35d907	0.1775857
64	0x3d315b76	0.043300115
65	0x3e52d71b	0.20589869
66	0xbe04c0ce	-0.12964174
67	0x3e366736	0.1781281
68	0x3d166000	0.036712646
69	0xbce70bd8	-0.02820389
70	0x3d52690c	0.05136971
71	0x3e89d623	0.26921186
72	0x3e40a2e5	0.1881214
73	0xbdafaad1	-0.085775025
74	0xbe3d17ac	-0.18466061
75	0x3e2d87b8	0.16946304
76	0xbcbbfaf0	-0.022946805
77	0x3dd21bc7	0.10259204
78	0xbd2e3a59	-0.042536113
79	0x3ce2da2a	0.02769192
80	0x3d9e85f3	0.077403925
81	0x3e19ae60	0.15007925
82	0x3e11cb86	0.14237794
83	0xbe01c166	-0.12671432
84	0xbe37ca7e	-0.17948338
85	0xbe060116	-0.13086352
86	0x3e6f21fb	0.23352806
87	0xbde532c6	-0.11191325
88	0x3c7dbe60	0.0154872835
89	0xbe621a4d	-0.22080345
90	0xbd698010	-0.057006896
91	0x3e3b485a	0.18289319
92	0xbd6e8269	-0.058229838
93	0xbe0cc867	-0.13748322
94	0xbc8a3467	-0.01687069
95	0x3e28be85	0.16478927
96	0xbd8b5479	-0.06803221
97	0x3bb23337	0.005438234
98	0x3d3a208e	0.045441203
99	0xbdb29ab8	-0.087209165
100	0xbd2aaa23	-0.04166616
101	0xbe3ead8b	-0.18620889
102	0x3e229ccf	0.1588013
103	0xbe5a3b61	-0.21311714
104	0x3e58b476	0.2116259
105	0x3dd786f9	0.10523791
106	0xbe39b411	-0.18135096
107	0x3de6252a	0.11237557
108	0x3da61f00	0.081113815
109	0x3e389ef3	0.18029384
110	0x3e641089	0.22271933
111	0xbdcd4f98	-0.10024947
112	0x3e134527	0.14381848
113	0x3de5899a	0.11207886
114	0xbca911ae	-0.020638313
115	0xbcf28dfa	-0.029608715
116	0xbe504842	-0.20340064
117	0x3e342d4d	0.17595406
118	0xbd272ebe	-0.04081606
119	0xbdab1228	-0.083530724
120	0x3dd448eb	0.103654705
121	0x3e199abb	0.15000431
122	0x3e4cb2ee	0.19990131
123	0xbe0ac697	-0.13552319
124	0xbe5cc148	-0.21558106
125	0xbe286734	-0.16445619
126	0x3e3cf5ff	0.18453215
127	0x3cce12e6	0.025155496
128	0x3d2bef54	0.041976288
129	0x3e4226d8	0.1896013
130	0xbe175492	-0.14778355
131	0xbe91dedd	-0.28490344
132	0x3d46bce6	0.04851999
133	0x3d4ee22b	0.05050866
134	0xbde5f292	-0.11227907
135	0xbd655cb9	-0.05599663
136	0x3e45b0fd	0.19305797
137	0xbd7790cf	-0.060440835
138	0xbc9be377	-0.019029362
139	0xbd0ed4bb	-0.034870844
140	0x3e27e558	0.16396081
141	0x3af992d8	0.0019040955
142	0x3dfaacf4	0.122400194
143	0xbe02ea2e	-0.12784645
144	0x3e28eb84	0.16496092
145	0xbd397114	-0.045273855
146	0x3dea59d8	0.114429176
147	0xbca49d95	-0.020094672
148	0x3e010f7f	0.12603568
149	0xbd332417	-0.04373559
150	0x3dda44b7	0.106576376
151	0x3e95b676	0.2924077
152	0xbe2a8be9	-0.16654934
153	0x3cad0832	0.021122072
154	0x3e3e5b19	0.18589438
155	0xbe350ed0	-0.17681432
156	0xbd8b656e	-0.068064556
157	0x3e313157	0.17303978
158	0xbd654392	-0.055972643
159	0x3e15baa1	0.14621975
160	0xbd1819ae	-0.037133865
161	0xbcf129ea	-0.029438931
162	0x3d5f284e	0.054481797
163	0x3c3ea338	0.011635594
164	0x3d18ead6	0.037333332
165	0xbe530a55	-0.2060941
166	0x3d14182d	0.03615587
167	0x3e38efc1	0.18060209
168	0x3e33d16f	0.17560361
169	0xbe045c66	-0.12925872
170	0x3e196ace	0.14982149
171	0xbe308a12	-0.1724017
172	0xbc016adf	-0.007899015
173	0xbc298ec9	-0.010348984
174	0xbe3b92ff	-0.18317793
175	0xbde85b8e	-0.11345588
176	0x3de3d2f8	0.111242235
177	0xbe07bf19	-0.13256492
178	0x3dda3090	0.10653794
179	0xbd8ec0ad	-0.06970344
180	0x3e12e7f1	0.14346291
181	0xbd00c0cb	-0.03143386
182	0xbde21f3f	-0.11041116
183	0xbb92ab41	-0.0044759815
184	0xbdfcbcaf	-0.12340676
185	0xbd885023	-0.0665591
186	0xbe063df5	-0.13109572
187	0x3e27d253	0.16388826
188	0x3b780f7f	0.0037851033
189	0x3e779a5c	0.24179977
190	0x3de5fd64	0.11229971
191	0xbd6d07b7	-0.057868686
192	0xbe435180	-0.19074059
193	0x3e433ff4	0.19067365
194	0x3da43e2a	0.08019669
195	0x3e011cab	0.12608592
196	0x3dad33d0	0.08457148
197	0xbd51e7e6	-0.051246546
198	0xbd74bec2	-0.059752233
199	0xbe39f421	-0.18159534
200	0x3e6fa8c1	0.23404218
201	0x3e438744	0.19094568
202	0x3e1658cc	0.14682311
203	0x3d7471ac	0.05967872
204	0xbddb6010	-0.10711682
205	0xbe2d8cec	-0.16948289
206	0x3b8307e9	0.0039987457
207	0x3dacfbaa	0.084464386
208	0xbc45c570	-0.012070999
209	0xbdfb3c2f	-0.122673385
210	0x3e2c8eab	0.16851299
211	0x3e377541	0.17915823
212	0x3e40b105	0.18817528
213	0xbd4bd6fb	-0.04976557
214	0xbd3ca2fa	-0.046053864
215	0xbcff1f20	-0.031142771
216	0x3c518970	0.012789115
217	0xbccac599	-0.024752425
218	0x3e49963b	0.19686215
219	0x3d876ff1	0.06613148
220	0xbdd81fb5	-0.10552923
221	0x3e089308	0.13337338
222	0xbe56f575	-0.20992072
223	0x3e01d8eb	0.12680404
224	0xbcb9fc06	-0.022703182
225	0xbe3d214e	-0.18469736
226	0x3da54999	0.08070678
227	0x3d3a005b	0.045410495
228	0xbdd37d7c	-0.103266686
229	0xbd39f0c6	-0.045395635
230	0x3da0ca55	0.07851092
231	0x3e3b7f90	0.1831038
232	0xbe121718	-0.14266622
233	0x3d42a97b	0.04752491
234	0x3dd0fa55	0.10203997
235	0xbdbce789	-0.09223849
236	0x3daecffb	0.08535763
237	0xbd0a9fc9	-0.03384379
238	0x3df83cc4	0.12120965
239	0x3e2d9761	0.16952278
240	0x3d96a5ec	0.07355866
241	0x3db33dad	0.08751998
242	0x3de14610	0.109996915
243	0x3dfec2c2	0.12439491
244	0xbdd6e070	-0.10492027
245	0xbd90650e	-0.07050525
246	0xbcf1e615	-0.029528657
247	0x3e4d1683	0.20028119
248	0x3de2ba56	0.11070697
249	0xbdb92c6d	-0.09041677
250	0x3e1842e6	0.1486927
251	0xbc5850ca	-0.013202855
252	0x3e073cf7	0.1320685
253	0x3e49ee79	0.19719876
254	0x3ce6d4e4	0.028177686
255	0xbd9f9935	-0.07792894

fc2.bias f4 [20]
0	0x3dcfd92f	0.10148846
1	0xbd9ee288	-0.07758051
2	0x3e745886	0.23861894
3	0xbe5c0d9f	-0.21489571
4	0x3d86abf3	0.065757655
5	0xbd3b330f	-0.04570299
6	0xbc7f0dac	-0.0155672245
7	0x3d5cf824	0.053947583
8	0x3c866ca8	0.016409233
9	0xbe0acec7	-0.13555442
10	0xbe020714	-0.12698013
11	0xbe15357e	-0.14571187
12	0xbd49173a	-0.049094416
13	0xbe604949	-0.21902956
14	0xbe0ce473	-0.13759021
15	0xbdc4ed60	-0.09615588
16	0x3ddf2e71	0.1089753
17	0x3e19e8a1	0.15030147
18	0x3cbf3606	0.02334119
19	0x3e2176e5	0.15768011

output_layer.weight f4 [1, 20]
0	0xbe01373d	-0.12618728
1	0x3c3bd109	0.011463412
2	0xbd54c049	-0.05194119
3	0x3e3d3f65	0.18481214
4	0x3e6eb0fb	0.233097
5	0xbe45bcae	-0.19310257
6	0xbe100dd7	-0.1406778
7	0x3ea35a6d	0.31904927
8	0xbdb487a9	-0.088149376
9	0xbe1fabf6	-0.15592942
10	0x3e501b0a	0.20322815
11	0xbe07d4f8	-0.13264835
12	0x3d8fa873	0.07014551
13	0xbd9cff31	-0.076658614
14	0x3dd3dac0	0.103444576
15	0xbd3c6c81	-0.046001915
16	0x3ecfba84	0.40571988
17	0x3f1a3684	0.60239434
18	0xbd86cd30	-0.06582105
19	0x3e95b765	0.2924148
