2ftrs_20epochs_1batch.pth (torch, 4055 bytes, 5 tensors)

fc1.weight f4 [20, 2]
-0.02028255 -0.07004178 0.38109285 -0.1372168 0.6530247 0.5775484 -0.05030793 -0.353413
0.53726786 0.6335123 -0.12858008 0.2069398 -0.5608189 -0.05530258 0.51275116 -0.42552105
-0.49196595 0.37053102 0.48455662 0.30582678 0.4204478 0.1526665 -0.04934963 -0.1486599
0.24298282 -0.31043687 -0.06517199 -0.5580435 0.32840076 -0.22096221 0.13527043 -0.48661134
0.17614922 0.6267668 0.09378618 -0.24445169 0.5573029 -0.5239817 -0.29025567 -0.1480037
00000000: 9727 a6bc 1172 8fbd 9a1e c33e 9082 0cbe
00000010: a02c 273f 36da 133f b00f 4ebd 8cf2 b4be
00000020: 638a 093f dd2d 223f 7faa 03be 07e8 533e
00000030: d491 0fbf f584 62bd a943 033f e5dd d9be
00000040: f6e2 fbbe 3eb6 bd3e ce17 f83e 5495 9c3e
00000050: ef44 d73e 9b54 1c3e d622 4abd 4d3a 18be
00000060: 7dd0 783e 95f1 9ebe e478 85bd f0db 0ebf
00000070: 2524 a83e eb43 62be 5584 0a3e 1f25 f9be
00000080: 7660 343e ca73 203f f812 c03d 8b51 7abe
00000090: 67ab 0e3f aa23 06bf 649c 94be 488e 17be

fc1.bias f4 [20]
0.560382 -0.3048568 -0.0129488865 0.111854866 0.4166017 -0.19065507 -0.16043197 -0.4057313
0.027243402 -0.009468813 -0.53312695 0.41006342 0.4396301 -0.5600375 -0.40564278 -0.018872377
-0.2371088 0.52987194 0.122445166 0.5180179
00000000: 3275 0f3f 3116 9cbe 9127 54bc 2a14 e53d
00000010: d14c d53e 153b 43be 4748 24be 03bc cfbe
00000020: 8e2d df3c 1523 1bbc 027b 08bf d5f3 d13e
00000030: 3217 e13e 9e5e 0fbf 69b0 cfbe 3e9a 9abc
00000040: a6cc 72be b0a5 073f 88c4 fa3d d29c 043f

fc2.weight f4 [20, 20]
0.04702693 -0.1406714 0.3836114 -0.0664872 0.35477376 0.076715834 -0.11409211 0.11994578
-0.17578506 0.14177588 -0.12364624 0.04449796 0.043029103 -0.1481666 0.12230402 -0.030205358
0.18645455 -0.044222623 0.046382993 -0.16986163 -0.06960689 -0.15721811 0.18980816 0.17347412
-0.09331663 -0.16914304 -0.004809577 -0.1399552 0.111323595 0.2119323 0.07346654 -0.10555363
0.15069006 -0.149489 0.12182291 0.0905811 0.087650776 -0.08110293 0.023709437 0.02762042
-0.16968049 -0.05801159 -0.15968819 -0.10014359 -0.0950973 0.028172478 0.061066493 -0.1232543
0.045589127 0.12770386 -0.1449514 0.005732347 0.16809203 -0.018448649 0.10199576 0.09893868
-0.041571915 -0.14823301 0.08255287 -0.03677779 0.06794564 -0.020376079 0.02082993 0.13999282
-0.16832066 -0.13667427 0.027158182 -0.07556381 0.05687747 0.06637939 0.010014825 -0.09592239
0.15732172 0.025032898 0.068967886 0.012459552 -0.008943938 -0.17234728 0.055868775 -0.1269289
-0.067078106 -0.011996812 -0.061825123 0.05361979 0.023288568 -0.05951692 0.1714516 -0.08759667
-0.07931995 0.02072638 -0.019615412 0.086893074 0.06169018 -0.022117158 -0.15149201 0.057488233
-0.059707917 -0.18243077 0.14160906 -0.029013056 0.12110395 -0.08936432 -0.08557168 -0.15204549
0.16608459 0.12898989 -0.115519285 -0.085279636 -0.16960472 0.05047136 -0.0567325 -0.11128856
0.13502544 -0.06086611 0.00093185576 0.018004112 0.030265758 -0.09166535 -0.11727581 0.054050267
0.0040667453 -0.15409754 0.013408948 -0.1258861 0.1800121 -0.114424974 -0.16271581 0.15379597
0.15827747 0.049773004 -0.17124784 0.053639583 0.07299016 -0.034333784 -0.015826099 -0.13031678
0.03177552 -0.097804286 0.016372139 -0.16769543 0.0036283026 -0.12347023 0.027781118 -0.09423997
-0.12461633 -0.15608017 0.10589327 0.16430236 0.16400956 -0.10074938 0.068201736 0.0059952647
0.097583845 0.08268765 0.1395687 0.10123486 -0.11857237 -0.16365997 0.14137654 0.053725038
-0.15434724 0.0060911966 -0.12942535 0.08014275 -0.13956358 -0.026229488 0.15989934 -0.026319822
-0.048178457 -0.12879892 -0.09413774 0.16899684 0.05665154 0.022039978 0.13959935 -0.13632716
-0.022893263 -0.078969434 0.1454631 -0.10267037 -0.10812054 0.04662924 -0.09384493 0.16736726
-0.090399064 -0.054625392 0.05342724 0.17089076 -0.111772805 0.091614895 0.10425278 -0.013720981
-0.136429 0.17027107 -0.04470383 -0.007084133 0.1665154 0.035576165 -0.09819135 0.01863468
0.10228202 -0.04178055 -0.11256319 0.075409524 -0.039451458 -0.092049405 0.09343215 0.02108729
-0.1456505 0.019032462 0.038416088 0.19841927 -0.028008122 0.15395376 0.044689395 0.11207067
0.15387897 0.12039808 0.047800332 0.1277606 -0.1826373 -0.0047050137 0.26199186 0.13561587
0.33860323 -0.10398275 0.06663596 -0.07986988 -0.15878303 0.1421706 -0.039147515 -0.09239102
0.040260557 -0.063509494 -0.09714929 -0.03578469 0.047742657 0.061703697 -0.1196777 -0.16392738
-0.111283354 0.025378278 -0.08901323 -0.0878487 0.09031618 0.12866104 -0.07078553 0.058479935
0.02507126 -0.040186588 0.022587994 -0.012812984 -0.043909583 -0.035595737 0.13850665 0.039539058
00000000: 4f9f 403d 2a0c 10be b768 c43e 712a 88bd
00000010: e8a4 b53e 311d 9d3d 20a9 e9bd 22a6 f53d
00000020: 0001 34be b22d 113e 3d3a fdbd 7e43 363d
00000030: 493f 303d fcb8 17be 887a fa3d 3a71 f7bc
00000040: f1ed 3e3e c822 35bd 18fc 3d3d 35f0 2dbe
00000050: 0f8e 8ebd c9fd 20be 125d 423e 33a3 313e
00000060: ca1c bfbd d533 2dbe a899 9dbb 6a50 0fbe
00000070: a0fd e33d c804 593e a075 963d 802c d8bd
00000080: 7f4e 1a3e a513 19be 4a7e f93d 9582 b93d
00000090: 4082 b33d 4b19 a6bd 4b3a c23c 3844 e23c
000000a0: b9c0 2dbe 909d 6dbd 4d85 23be 1518 cdbd
000000b0: 60c2 c2bd f8c9 e63c dc20 7a3d c06c fcbd
000000c0: aabb 3a3d cdc4 023e 246e 14be 69d6 bb3b
000000d0: 5120 2c3e 9f21 97bc 27e3 d03d 5da0 ca3d
000000e0: 5047 2abd 65ca 17be 7b11 a93d 4fa4 16bd
000000f0: 1527 8b3d bceb a6bc 88a3 aa3c 475a 0f3e
00000100: 405c 2cbe 57f4 0bbe d67a de3c 33c1 9abd
00000110: 5af8 683d ebf1 873d 3815 243c f572 c4bd
00000120: f218 213e cb11 cd3c 093f 8d3d 2623 4c3c
00000130: 9889 12bc ce7b 30be a8d6 643d a6f9 01be
00000140: 3f60 89bd 478e 44bc 573c 7dbd 6da0 5b3d
00000150: abc7 be3c 04c8 73bd 0291 2f3e e265 b3bd
00000160: 7f72 a2bd 5fca a93c 80b0 a0bc fff4 b13d
00000170: d8ae 7c3d 0b2f b5bc b920 1bbe c878 6b3d
00000180: 4a90 74bd 22cf 3abe f701 113e caac edbc
00000190: 5905 f83d a404 b7bd 3440 afbd d0b1 1bbe
000001a0: 1412 2a3e ed15 043e 6095 ecbd 17a7 aebd
000001b0: dcac 2dbe 0fbb 4e3d 5760 68bd 42eb e3bd
000001c0: 1c44 0a3e be4e 79bd c847 743a 5c7d 933c
000001d0: e5ef f73c 0bbb bbbd 4d2e f0bd d063 5d3d
000001e0: 5542 853b bfcb 1dbe 34b1 5b3c 49e8 00be
000001f0: 1855 383e a457 eabd f99e 26be b17c 1d3e
00000200: 7d13 223e c7de 4b3d 985b 2fbe 2eb5 5b3d
00000210: dd7b 953d 95a1 0cbd bca5 81bc c371 05be
00000220: 0c27 023d 9d4d c8bd dd1e 863c 5ab8 2bbe
00000230: d1c8 6d3b f6dd fcbd 3a95 e33c e300 c1bd
00000240: d936 ffbd 7bd3 1fbe 92de d83d e13e 283e
00000250: 1ff2 273e b155 cebd 5aad 8b3d ed73 c43b
00000260: 0ada c73d 2558 a93d 19eb 0e3e 3954 cf3d
00000270: 12d6 f2bd 7b96 27be 03c5 103e c90e 5c3d
00000280: 340d 1ebe a998 c73b 1488 04be e221 a43d
00000290: c1e9 0ebe 39df d6bc a7bc 233e ab9c d7bc
000002a0: c656 45bd dde3 03be 4acb c0bd 820d 2d3e
000002b0: 720b 683d 2f8d b43c 22f3 0e3e 5999 0bbe
000002c0: a78a bbbc baba a1bd 47f4 143e d844 d2bd
000002d0: 4d6e ddbd 4dfe 3e3d c531 c0bd 5362 2b3e
000002e0: 2523 b9bd e0be 5fbd 86d6 5a3d fdfd 2e3e
000002f0: 24e9 e4bd 97a0 bb3d 7b82 d53d f7cd 60bc
00000300: 0bb4 0bbe 8a5b 2e3e 5d1b 37bd 0422 e8bb
00000310: 0383 2a3e 50b8 113d 8c18 c9bd c2a7 983c
00000320: 3c79 d13d 1522 2bbd 8887 e6bd 4f70 9a3d
00000330: da97 21bd 6684 bcbd 5b59 bf3d 41bf ac3c
00000340: 6825 15be f7e9 9b3c 305a 1d3d 6c2e 4b3e
00000350: 4a71 e5bc 0ea6 1d3e 3a0c 373d 4f85 e53d
00000360: 7392 1d3e 4593 f63d 48ca 433d add3 023e
00000370: 4605 3bbe 842c 9abb cc23 863e e3de 0a3e
00000380: 675d ad3e e8f4 d4bd 6f78 883d d292 a3bd
00000390: 0598 22be 2b95 113e 2559 20bd 8137 bdbd
000003a0: 41e8 243d 4411 82bd 35f6 c6bd f892 12bd
000003b0: ce8d 433d 04bd 7c3d 9519 f5bd 94dc 27be
000003c0: 87e8 e3bd 1be6 cf3c 914c b6bd 05ea b3bd
000003d0: b0f7 b83d b8bf 033e 01f8 90bd a888 6f3d
000003e0: 3e62 cd3c b19a 24bd 750a b93c 8ded 51bc
000003f0: 89da 33bd d6cc 11bd b0d4 0d3e b5f3 213d

fc2.bias f4 [20]
0.09093547 0.07660804 0.031864975 0.0030256587 0.006380748 0.029077118 0.015689401 0.055267558
0.08238017 0.113068074 -0.15050703 0.12481831 0.11736953 -0.12950076 0.19371034 -0.09723928
-0.13590589 0.011378234 -0.03561878 -0.10079046
00000000: 603c ba3d ade4 9c3d d984 023d 214a 463b
00000010: 9815 d13b 2333 ee3c 0f87 803c 3c60 623d
00000020: efb6 a83d 3c90 e73d 841e 1abe bea0 ff3d
00000030: 705f f03d d99b 04be 015c 463e 6325 c7bd
00000040: ea2a 0bbe c66b 3a3c ffe4 11bd 3b6b cebd

output_layer.weight f4 [1, 20]
0.5251343 0.13854834 0.12295775 0.15073131 -0.020098865 0.094786726 0.16033325 0.11777726
-0.15041646 -0.029347751 -0.13503768 0.45598528 -0.06722698 0.0058076964 -0.4263791 0.16180606
0.3011701 0.40675983 0.13092503 0.01609014
00000000: 346f 063f 9edf 0d3e 46d1 fb3d 4f59 1a3e
00000010: 60a6 a4bc 8b1f c23d 662e 243e 3435 f13d
00000020: c606 1abe b26a f0bc 5147 0abe e776 e93e
00000030: 4dae 89bd 7d4e be3b 5d4e dabe 7db0 253e
00000040: f832 9a3e d342 d03e 3611 063e 78cf 833c
