2ftrs_20epochs_2batch.pth (torch, 4055 bytes, 5 tensors)

fc1.weight f4 [20, 2]
00000000: 5c37 ffbe bd80 f9bb 7566 883e 1436 de3d
00000010: 8e10 083f 13d0 9e3c 852f 113e 071d 123f
00000020: f6b0 c13e fef9 193f 4837 bdbe 5689 d63d
00000030: affc 1f3f 6823 1b3f f9d1 9b3e e070 cd3c
00000040: ad0b b53e 8b69 1cbc 3cb4 113f 3704 db3e
00000050: 69bb 213e 0288 953e 3a41 823e fb5d 0dbf
00000060: 11ab 99be 94e5 0cbf 781a 1f3f 15b1 d23e
00000070: e3a7 90be dd9b 023f 9f8e 493e 0dd0 01bc
00000080: 985b adbe 2f38 053e 9160 4c3e f54e 90be
00000090: 19ab d93e 7df9 f63e 13e1 8bbe 76c0 0bbf
-0.49846923 -0.0076142238 0.2664067 0.10850158 0.5315026 0.019386327 0.14178284 0.5707554
0.37830323 0.6014708 -0.3695624 0.104754135 0.6249494 0.606009 0.30433634 0.025078237
0.3536047 -0.009546648 0.5691564 0.42776653 0.15794148 0.29205328 0.2544039 -0.5522153
-0.30013326 -0.5503781 0.62149763 0.41150728 -0.28253087 0.5101908 0.19683312 -0.007923138
-0.33858943 0.13009714 0.19958712 -0.2818524 0.4251335 0.4823722 -0.27320156 -0.5459055

fc1.bias f4 [20]
00000000: 3581 193f 7ef0 cbbe 5829 03bf c01c 993d
00000010: b493 9d3d 9bcf 473e a8c3 4cbc 5e18 01bf
00000020: 68f7 233d be60 e6bd 18c0 683e 0c5b 063f
00000030: 7dc2 9fbe be2a 623e 98ae 04bf 1324 a43e
00000040: 509c cfbe 4f5f 0abf d6ec 913c 685c 1dbf
0.5996278 -0.39831918 -0.5123496 0.07476187 0.07694188 0.19512789 -0.01249782 -0.50427806
0.040030867 -0.11248921 0.22729528 0.52482677 -0.3120307 0.22086617 -0.5182891 0.32058772
-0.40548944 -0.5405168 0.017813127 -0.61469126

fc2.weight f4 [20, 20]
00000000: a31b 8ebe 7c35 063e a9c4 963d 280a 533e
00000010: f764 8f3e 088b c43d 1c12 c83d 5827 ccbd
00000020: 51dd b5bd 0619 353e 328d 223e e2c8 a73d
00000030: 4c2f 01be 5bf1 123e 6609 c13d a59e ab3c
00000040: 3d04 093e 0c55 1abe b0bc dd3d 3cd5 1bbd
00000050: 18c7 e6bd bd7e 023e 1471 c93c 6fe2 43be
00000060: 9117 413e 039f 843d 0837 003d ae05 0a3e
00000070: 49b2 28be 87f2 98bb cdce a4bd 333f 23be
00000080: 4aee 0e3e 4fc7 083e c084 3cbe 34e6 42bd
00000090: c8c2 373c d427 89bd a214 843c 82f6 fdbd
000000a0: 71d5 cebd f0c7 a6bd be0b d2bd c577 86bd
000000b0: 4a08 ffbd f78d 60bd 48f7 6ebe 6724 45be
000000c0: 90de bcbd cb2c 353e 8ae0 433d 45f3 13be
000000d0: 97b3 0abe 860f cf3d c8cc e1bd 8a9b 83bc
000000e0: 5e90 efbd ca94 3a3e 73d7 a4bb c7a1 18be
000000f0: cfcf aa3d 0af2 f63d fb76 21be f9e3 963d
00000100: f4be 0b3e a4f0 18be f401 adbd 45a3 4e3d
00000110: ef6c 46bd 29d8 cdbc e1b1 c63d 3eaf 70bd
00000120: 48bc d33d b611 cebd b78f cebd 3072 26be
00000130: b0ce 08be 6dda 083e 8aef acbc 96aa 2b3d
00000140: b544 a73d d645 68bd 1045 8d3b 61f4 5a3d
00000150: e047 703e cdde 09be 8c75 003e 4228 8e3d
00000160: 59e3 a4bd aadc a6bc e2ec 3c3d a782 ffbd
00000170: c5a2 343d 47e9 323d 8ff8 88bd e85c 38bd
00000180: 1285 3b3e f867 413e 11c1 813e 464d 5e3d
00000190: a103 cebd 93da ad3c 9dbe 40be 8494 b43d
000001a0: e456 eb3c 3a07 403e 73a2 48be 77b8 31be
000001b0: 982d fd3d c6a6 d3bb 5816 edbd eda0 64bd
000001c0: 207d 003c 6c00 27bc 6b3b 2cbe 395a 23be
000001d0: 5860 973d a273 acbd 56e2 f1bd f454 d03c
000001e0: 6898 f7bd 148b 163e 0a79 36bd 4628 ef3d
000001f0: a461 f33d c50b e93d 2a5f a13e bd53 333e
00000200: cd77 0b3e efc1 313e cdb8 3c3d 3e45 9dbd
00000210: f233 e73d 3b9a 7f3e 3c37 7a3d 3202 ce3d
00000220: 61a9 373e 47c3 4c3d 8a40 0f3e 3d64 473e
00000230: 3e8b aebc 7f5b bd3d 1899 113e 7967 0c3e
00000240: e9de a33c d2cf fa3d c109 44be e143 1dbe
00000250: 3f57 0cbe 6613 0c3c aa06 ef3a 9c4a 2abe
00000260: 8418 41bd f630 c03d 84d6 e53d 0296 16bc
00000270: 08bb eb3d 730c 8cbc fd09 613d 50be 9abd
00000280: 0062 7ebd 2145 173c 877c 36be 0ece 44bd
00000290: 9ec0 12be 6fb4 90bd bb05 9f3d 77d9 1abe
000002a0: 11d4 2e3c fae8 e4bd 1e14 7fbd 1da9 233e
000002b0: b7a1 cebd 6638 51bc c16b 38be 2669 7c3d
000002c0: 9e54 dcbd cab6 3f3e c594 22bd 3fb7 ccbd
000002d0: b82a 7cbd 8afa 043e 6fdc 1c3d a852 2bbe
000002e0: 2b65 a4bd 79cc 0ebe 4394 31be 0cf9 47be
000002f0: e07b d13d b0ec ee3c 16ce 2a3e 62ec 9fbb
00000300: b813 0dbe a3e0 513d 9692 91bc 8808 f5bd
00000310: 465f 133d ac8d 04be b04f ec3d 8a1d 6dbc
00000320: e9db 8abe 97c5 ccbd 7b39 0abe 5bee 3e3e
00000330: 9310 d73d a720 4c3c 0308 8a3e 4d11 2d3d
00000340: fbd9 2e3e b167 ea3d 5f10 e43d d540 8e3d
00000350: b8b6 173e bc7d d33d 4967 28be 6cae 3a3d
00000360: 1b50 ba3d c6bd a23d f108 c83d ace9 063e
00000370: 03a3 31be 609a 0abe dd39 1b3e d092 423e
00000380: 55df 58bc 0fd0 983d 731b cf3b cb56 c4bc
00000390: 4510 47be d197 863d cb35 31be e0d9 703d
000003a0: 148e b0bc cb8f 0c3d 03fe 97bd 7309 373e
000003b0: 84fa b1bd 0693 f2bc 30ab 06be a6a7 81bd
000003c0: ab25 323e a147 973d f678 223e 67ba d23d
000003d0: 05c3 913d 613b d13d db1d 1cbe c9a8 9fbd
000003e0: ae40 ec3d 0a90 c2bc a8f0 e8bd fa5e e13d
000003f0: b661 b53d cf31 e7bc bcb1 443d c5a4 043e
-0.2775546 0.1310634 0.07361729 0.20609343 0.28006718 0.095968306 0.09769079 -0.09968442
-0.088801034 0.17685327 0.15874174 0.08192612 -0.12615699 0.14349882 0.09425621 0.020949671
0.13380523 -0.15071505 0.10827005 -0.038045153 -0.11268443 0.1274366 0.024590053 -0.19129346
0.18856646 0.064756416 0.031302482 0.13478729 -0.1647426 -0.0046675834 -0.080472566 -0.15942077
0.13958088 0.1335728 -0.18410015 -0.04758282 0.011215873 -0.0669705 0.01612312 -0.12400533
-0.100993045 -0.08143604 -0.10256146 -0.06565813 -0.12452753 -0.05482289 -0.23336518 -0.19252168
-0.09222138 0.17692868 0.04782156 -0.14448269 -0.1354507 0.10110383 -0.11025387 -0.016065378
-0.11697458 0.18220821 -0.0050305664 -0.14905463 0.083404176 0.12057884 -0.15768044 0.07367701
0.13647062 -0.14935547 -0.08447638 0.050448675 -0.04844373 -0.025127487 0.097018965 -0.058760874
0.10338646 -0.10061972 -0.10086005 -0.16254497 -0.13360095 0.13364573 -0.021110315 0.04191073
0.08167402 -0.056707226 0.0043112114 0.053455714 0.23464918 -0.13463898 0.1254484 0.06941272
-0.080511756 -0.020368893 0.046124347 -0.12476092 0.04410054 0.0436795 -0.06688034 -0.045010477
0.18312481 0.18887317 0.2534261 0.054272912 -0.10059286 0.021222388 -0.18822713 0.088173896
0.028727956 0.18752757 -0.1959322 -0.17355524 0.12362212 -0.00645909 -0.11576527 -0.055817533
0.007842332 -0.010192972 -0.16819541 -0.15952386 0.07391423 -0.08420493 -0.11810748 0.025431134
-0.12089616 0.14701492 -0.044549026 0.116776034 0.11883858 0.11379198 0.31517917 0.17512412
0.13619919 0.17359136 0.046074677 -0.076792225 0.11289205 0.24961178 0.06108783 0.100590125
0.17935707 0.04999092 0.13989463 0.19471832 -0.02130663 0.09245967 0.14218557 0.13711347
0.020003753 0.1224667 -0.19144346 -0.15357925 -0.13705157 0.008549547 0.0018236239 -0.16630024
-0.04714252 0.093843386 0.11222556 -0.009191038 0.11510283 -0.01709578 0.054941166 -0.075558305
-0.06210518 0.00923279 -0.17820941 -0.04804807 -0.1433129 -0.07065665 0.07764765 -0.15122019
0.010670678 -0.11177249 -0.062275045 0.1598248 -0.100894384 -0.012769794 -0.18009855 0.061623715
-0.10758327 0.18722072 -0.03969266 -0.09995889 -0.061564177 0.12986198 0.03829616 -0.1673075
-0.08027109 -0.13945188 -0.17341714 -0.19528598 0.102287054 0.029165596 0.16680178 -0.004880474
-0.13777053 0.05123962 -0.017770093 -0.11964518 0.03597953 -0.12944669 0.11538637 -0.014472375
-0.27120903 -0.09998625 -0.1349849 0.18645613 0.10501208 0.012458957 0.26959237 0.042252827
0.1707534 0.11445559 0.11135935 0.069459595 0.14815795 0.10326716 -0.1644565 0.045576498
0.0909731 0.07946353 0.097673304 0.13175076 -0.1734734 -0.13535452 0.15158792 0.19001317
-0.01323684 0.07461559 0.006320411 -0.023967167 -0.194398 0.065719254 -0.17305677 0.05880153
-0.021552123 0.03431682 -0.07421496 0.17874698 -0.0869036 -0.029611122 -0.1315124 -0.063308045
0.17397182 0.07386709 0.15866455 0.1028946 0.07117275 0.10216404 -0.15245764 -0.07795865
0.11535774 -0.023750324 -0.113740265 0.110044435 0.088565275 -0.028221993 0.048021063 0.1295348

fc2.bias f4 [20]
00000000: 7981 663d e47c 36be f384 073d c3af 0abe
00000010: 2242 183c 8201 46be d64f 27bd 9270 babd
00000020: cd60 49be a931 2fbe f20a cb3c f22b 19bd
00000030: 92aa 313e d300 9cbd 6f7e 91bd ac44 12be
00000040: 42e6 d2ba 4dbc 903d aa79 963d 6c17 c7bd
0.05627582 -0.1782108 0.033085775 -0.1354361 0.009293111 -0.19336513 -0.04084762 -0.09103502
-0.19665833 -0.17108788 0.024785493 -0.037395425 0.17350224 -0.07617345 -0.071041934 -0.14284009
-0.0016090351 0.070671655 0.07347424 -0.09721264

output_layer.weight f4 [1, 20]
00000000: 9413 ca3e 03ec 45bd 9006 97bd ba7e 0ebe
00000010: ac42 953e b8bc 08bd 8a1d d93e 993c 41bc
00000020: 4469 16be fe4b 6bbc 0201 c73e 534f 9ebd
00000030: 720f 38be b03e 833c 1203 28bd d7c2 ec3a
00000040: 490f 743e 6429 8abe 1223 f23b 6f2d 393e
0.39468062 -0.04832078 -0.073742986 -0.1391553 0.2915243 -0.0333831 0.4240535 -0.011794233
-0.14688593 -0.01436138 0.38867956 -0.07729974 -0.17974642 0.016021103 -0.041018553 0.0018063438
0.23833956 -0.26984704 0.0073894346 0.18083738
